en/hey_home.tflite (tflite, 206748 bytes, 9 tensors)

Const_1 f4 [32]
00000000: 1ef0 683c b790 4b3c d040 abbc 443d b2bc
00000010: ce18 c9bc 004c 16bc 2948 c43c f181 f6ba
00000020: 90cd a1bb 519c b6bc 8295 b5bc b107 b6b9
00000030: 0d6f 58bc 5637 ea3b 48bb c6bc 1e7a 943c
00000040: 4d3c e8ba 8ea2 053c bcf4 0a3c 6130 483b
00000050: 93bf e93b a801 c03c f4fa 2ebb db8e 593a
00000060: 5e13 2abc 8af8 8dbb 4faa d63c 22a9 0abc
00000070: e990 cbba 010c 173c 51e7 d43b 3041 aa3c
0.014217405 0.012424639 -0.020904928 -0.02175773 -0.02454796 -0.009173393 0.02396019 -0.0018807036
-0.004937835 -0.022291334 -0.022166017 -0.00034719476 -0.01321007 0.00714771 -0.024259225 0.018124636
-0.0017718166 0.008156432 0.008481201 0.0030546414 0.007133433 0.02343829 -0.0026699873 0.000829918
-0.010380594 -0.0043326067 0.026204256 -0.008463176 -0.0015530857 0.009219171 0.0064973016 0.020783037

Const_2 f4 [32]
00000000: e068 7e3f 5d85 7e3f d4f1 6d3f 7c5a 823f
00000010: ea34 7e3f 70d1 7b3f e512 7f3f 5e2b 7b3f
00000020: 5497 843f 2cc5 7e3f 2351 7f3f d75e 813f
00000030: d888 803f 5a95 7b3f 9b3d 813f 6f1b 7e3f
00000040: 1412 773f 1118 7f3f b2a3 7c3f 285c 833f
00000050: d899 7e3f a62d 813f ed96 7d3f 14dc 7d3f
00000060: d167 7b3f 9883 7e3f 0b33 813f 2bf7 813f
00000070: 4000 7c3f 006b 803f 69f0 7c3f 3b9d 793f
0.99378777 0.99422246 0.92947125 1.0183864 0.9929949 0.9836645 0.99638206 0.9811305
1.0358682 0.9951961 0.9973318 1.0107068 1.0041761 0.9827477 1.0096925 0.9926061
0.9651196 0.996461 0.9868728 1.0262499 0.99453497 1.0092056 0.9905842 0.9916394
0.98205286 0.99419546 1.0093702 1.0153555 0.9843788 1.0032654 0.98804337 0.9750554

Const_3 f4 [32]
00000000: d988 a2bc 1919 3b3c 159a 33bd d95e fdbb
00000010: 213f adbc 5ebb 6ebc ad75 903c a8bf a53b
00000020: 9354 d13c c08b 493b 0f97 dc3a 6962 ba3c
00000030: e8fb a63c 2219 963c 6328 8d3c e591 68bc
00000040: 1cdc 52bc be40 67bc 8c77 aa3c 35bf 31bc
00000050: ee2a 3f3b d403 503c e0d0 9abc 835e abbc
00000060: 8a93 aebc 9aec 95bc b07f 8d3c 99ba 0f3b
00000070: d25e 89bc dcac 6abb 2a98 1bbd 166b abbc
-0.019840645 0.011419558 -0.043848116 -0.007732254 -0.021148266 -0.014571039 0.017634237 0.0050582476
0.025553023 0.0030753464 0.0016829687 0.022752004 0.02038379 0.018322531 0.017231172 -0.01419494
-0.012869861 -0.014114557 0.020808958 -0.01084881 0.0029169875 0.012696225 -0.018898427 -0.02091909
-0.021310586 -0.018301297 0.0172728 0.002193129 -0.016768847 -0.0035808599 -0.03798691 -0.020925086

Const_5 f4 [32]
00000000: aea6 dabc 354f 103e a55a 443d 2e78 20bc
00000010: b4d6 bbbd 4fc8 063e ebd3 203e 73e0 4bbd
00000020: 7d76 0ebe fee8 063d ce9c 1bbe c8c3 e7bd
00000030: b448 c13c 4bd4 edbd 8414 abbd ce08 92bd
00000040: 83de d43d 8d6a 913d 1321 22bd 4f6d 263e
00000050: a290 3c3e e43f 5dbd 3a36 fdbd c661 80bd
00000060: bd1c abbd 30b2 11be d208 a7bd 7a45 80bc
00000070: 95f2 3fbd c3a9 a83c 9cdb b43d 6269 213d
-0.026690807 0.14092715 0.047938008 -0.009794278 -0.09171811 0.13162349 0.1570584 -0.0497746
-0.13912387 0.032937042 -0.15196535 -0.11316639 0.023594238 -0.11612757 -0.083535224 -0.071305856
0.10394003 0.07100401 -0.039582323 0.16252635 0.18414548 -0.05401601 -0.123638585 -0.06268649
-0.08355091 -0.1422813 -0.08155979 -0.015658129 -0.046862204 0.020588761 0.0883095 0.03940714

Const_6 f4 [32]
00000000: 90f6 883f 931f 683f 4fab 813f d0eb 873f
00000010: a9b7 a93f a99b 9f3f 555c 9f3f d0c6 863f
00000020: 0ffe 883f a0b0 7f3f f3c6 8e3f aeea 703f
00000030: 56c8 843f 2f6e 7a3f 514a 833f 4231 af3f
00000040: a0b6 a23f c403 9e3f 45a7 843f 2b51 a13f
00000050: c406 8c3f 32aa a03f 58d4 793f 725d 7d3f
00000060: 6a57 883f e400 853f 18b6 883f 4d14 7e3f
00000070: 7dfa a43f 775b 893f cfa7 843f 807f 803f
1.0700245 0.9067318 1.0130404 1.0618839 1.3259174 1.2469379 1.2450052 1.0529423
1.0702533 0.99878883 1.1154464 0.9410809 1.0373638 0.97824377 1.0257055 1.3686907
1.2711983 1.2344899 1.0363547 1.2602895 1.0939565 1.255194 0.97589636 0.9897071
1.0651677 1.0390897 1.0680571 0.99249727 1.2888943 1.0731038 1.0363711 1.003891

Const_7 f4 [32]
00000000: 2ec2 5c3d 6496 b5bd cd21 853b 9023 2c3d
00000010: 80c2 913e 097e 803e 9b3d 823e 3ba4 fd3c
00000020: c9dc 0b3d bd31 cc3b f2bc 443d a06a 86bd
00000030: 56a1 d43c b7e4 56bc c1a5 2d3c 8ba8 9b3e
00000040: 4115 853e 5699 7a3e 3464 b63c 44b0 883e
00000050: cbc6 0b3d 01b3 843e cdff aebc 3cb2 30bc
00000060: 98e5 c33c f90f 583c abfd 5f3c ecbb c2bc
00000070: d271 8a3e b4ef 043d dcf1 8c3c 55e3 e3ba
0.05389612 -0.08866575 0.0040628673 0.042026103 0.28468704 0.25096157 0.25437626 0.0309621
0.034146104 0.006231515 0.048031755 -0.06563306 0.025955837 -0.013116053 0.010598601 0.30402026
0.25992778 0.24472556 0.022264577 0.2669698 0.03412513 0.2591782 -0.02136221 -0.010784682
0.02391319 0.013187402 0.013671319 -0.023771249 0.27039963 0.03245516 0.017205171 -0.0017386476

MatMul f4 [32, 1536]
00000000: aa7e 9cbb 1358 4f3c fdc0 3e3c 26fa 31bc
00000010: 2e90 dd3c 3453 4e3c aa85 223c a5b7 35bc
00000020: 755b ec3a 78be 5e3c 6597 933c 2a45 d5bb
00000030: 7111 2eba dd41 fd3b b7e4 cf3c de3f b5bb
00000040: 007e 57bb b5c2 823c bc23 b2bb fe2c efbc
00000050: 0506 41bc 5ad7 a6bc f3c2 83bc b87a 6d3a
00000060: 2ffa 5abc 4a53 a33c 4a31 e2bc 813d d33b
00000070: d452 97bb 6f68 f0bc be8d 5f3c 7d8b b2ba
00000080: 25af c33b db2b 32bc bb1b 8fbc 102c c23b
00000090: bd82 303b e983 583c 98fa ca38 ff88 9ebc
000000a0: 6321 11bc bcb0 b23b ce51 b9bc 3845 843c
000000b0: f628 04bc d637 683c 3a07 1bbc f7f4 c13c
000000c0: bc52 b0bc 2271 56bb c1ef ccbb 1029 1fbb
000000d0: 57c1 913c b0eb a83c e6bd 263c f647 933c
000000e0: 58ab 753b 7068 3f3b c054 803c 9413 9abc
000000f0: 1273 333c 71a4 c3bc f334 223b 5481 813c
00000100: ac8e ed3b cbe5 42bb 8d1f c9bc 4221 8b3a
00000110: b096 bcba fdb9 66bc 84a1 09bc d3af ab3b
00000120: c0e6 3f3c fb8b 2b3c 5010 3c3b 26b7 8b3c
00000130: de33 3ebc 7f38 c73b a969 383c 382a 75bc
00000140: 489f c33b 8728 b63c 4f47 273c 3f84 1fbc
00000150: df42 b1bc 1ba4 853c fdae 43bc d0a1 853c
00000160: 0886 f23b 3d86 a33c 3a26 713c 3010 d63b
00000170: 8fd4 643c dd62 53bc 3572 203b db53 c9ba
00000180: a181 033d cbe9 813b 599d 583b 9ab7 4fbc
00000190: e6c0 783c e5b3 9fbb d838 8fbc 74c3 14bc
000001a0: aaa8 98bb 0c85 0dbc 81ea 6cbc 6ff1 d6bb
000001b0: 3756 253a de01 033d 6e85 413c 429b 1a3b
000001c0: a30e 763c 7c16 cf3b 60fc ad3c f650 90bb
000001d0: aa27 583c 14be 133c 1fb1 093c 88de dcbb
000001e0: 3f8a 6ebc 2c28 bb3c 7d33 0fbc 96f4 953b
000001f0: 44f8 443c 00a5 203c 9194 de3c 0526 703c
00000200: 86a8 833b bf07 d43b 753c 95bc 2ea5 0d3d
00000210: 9cad 613c d09a 94bb 46c4 7abb 958a 543c
00000220: 11ae de3c 2d92 323c 2012 b53a fb8d ccba
00000230: 3e3f adbc e4ce 2dbc e65c 703b 6179 453c
00000240: 6f9f b33c 5e96 66bb f283 b2bb fc2b 5dbc
00000250: 6267 a1ba cfab 593c ae01 8e3c b7f8 a8bc
00000260: 7859 643b 6386 da3b b17a 9c3c 62b7 a23c
00000270: 4b17 213c 8279 3ebb f806 db3c e065 8c3c
00000280: 8d25 bdbc 1e79 c6bc cb9c ba3b ea3d ecb9
00000290: 3e8d aabb 21af b73a 91fc 0e3c c82f be3c
000002a0: dfab a73c 5974 843c 84f9 9c3c 5a27 313c
000002b0: 0b60 d4bc 88de ec3b 03b9 d5bc 7060 b7ba
000002c0: 1f26 033d 7806 5e3c a387 ffbb d002 2d3b
000002d0: 46e2 89bb 09c2 6ebc 65d2 de3b f8b9 8f3c
000002e0: 6ff9 c13b c321 2cbc 0fa8 013d d2a1 eabc
000002f0: 84d5 2a3a 0a4b 4dbc 6e75 983c b65f 773c
00000300: ea08 8fbc 150c bf3c c48a c6bc 1cfa 5ebc
00000310: f6a9 98bc 1c6a 293b d31f 12bc 5d10 97bc
00000320: 02ef 993c 6bbe 89bc c8fd 29bc 4319 863c
00000330: 5d93 b8bc d5bf d03c 2ea0 b4ba 2f7f 81bc
00000340: b54f 8cbc fd02 eabc 5fa6 8abc a881 51bc
00000350: 7389 f53b 7977 013d 29f2 9ebb b525 01bc
00000360: a201 c3bb 3f2b 3f3c 4f59 b0bc 2ebf c43b
00000370: 8c02 0e3d feaf 3b3c cf11 973b ad34 cabc
00000380: becf b5bc 9e51 3abc 0b92 283c a39b 21bc
00000390: 514f f0ba 4d27 dfbc 332e faba baaa bd3c
000003a0: 9717 8dbc b3ed 90bc c9f2 663b 59ce 5bbc
000003b0: 0e26 22bc 1c9f 94bc 5bf4 733b e53e 9e3a
000003c0: 1822 3e3c 6c63 91bc 9c03 06bb 6980 bbbc
000003d0: 783d adbc d347 133d e5ab 70bc be0b 3d3c
000003e0: 43c9 dbba debc a8bc dc52 33bb 7ff4 73bc
000003f0: 84e8 ab3c 35a8 94bc de02 be3c e311 3cbb
-0.0047758417 0.012655276 0.011642692 -0.010862863 0.02704629 0.012593079 0.009919563 -0.011091148
0.0018032627 0.013595216 0.018016526 -0.006508489 -0.0006640172 0.007728799 0.025377614 -0.005531295
-0.0032881498 0.015961984 -0.005436389 -0.029196259 -0.01178122 -0.02036636 -0.01608417 0.0009059119
-0.0133653125 0.019937176 -0.027611393 0.006446541 -0.004618028 -0.029346673 0.013644634 -0.0013621893
0.0059718066 -0.010874714 -0.017469278 0.005925663 0.0026933395 0.013215044 9.678787e-05 -0.019352434
-0.008858058 0.0054531973 -0.022622015 0.016146287 -0.0080664065 0.014173469 -0.009462172 0.023676379
-0.021523826 -0.003272124 -0.006254167 -0.002428595 0.017792387 0.020620197 0.010177111 0.01797865
0.0037486162 0.0029206537 0.015665412 -0.018808164 0.010952728 -0.023882123 0.0024750798 0.015808739
0.007249674 -0.0029739018 -0.024551177 0.001061477 -0.001438817 -0.014082429 -0.008400325 0.0052394657
0.01171273 0.010470386 0.0028696246 0.017055105 -0.011609046 0.006079733 0.01125566 -0.014963679
0.0059699155 0.022236122 0.010209872 -0.00973612 -0.021638332 0.016313603 -0.011943576 0.01631251
0.0074012317 0.01996147 0.014718587 0.0065326914 0.013966694 -0.012901989 0.0024482135 -0.0015360074
0.032106046 0.003964638 0.003305277 -0.012678051 0.015182709 -0.00487374 -0.01748316 -0.009079803
-0.004658778 -0.008637678 -0.014460207 -0.006559543 0.00063070975 0.031984203 0.011811597 0.0023591076
0.015018138 0.006319819 0.021238506 -0.0044041825 0.01319305 0.009017486 0.008404045 -0.006740395
-0.014559328 0.022846304 -0.008740303 0.004576276 0.012022082 0.009804964 0.027170451 0.014657502
0.0040178923 0.00647065 -0.018217305 0.034581356 0.013774302 -0.0045350567 -0.003826396 0.012972494
0.02718261 0.010899109 0.0013814606 -0.0015606278 -0.02114832 -0.010608409 0.0036676466 0.012052865
0.02192661 -0.003518484 -0.005447858 -0.013499256 -0.0012314136 0.013285591 0.017334785 -0.020626409
0.0034843367 0.006668852 0.019101473 0.019862834 0.009832214 -0.0029064124 0.026736721 0.017138422
-0.023089195 -0.024227675 0.0056949607 -0.00045059557 -0.0052048257 0.0014013984 0.008727209 0.023216143
0.020467697 0.01616876 0.019161947 0.010812605 -0.025924703 0.007228676 -0.026089197 -0.0013990533
0.032018777 0.013551347 -0.0077981516 0.0026399381 -0.004207882 -0.014572629 0.0067999833 0.017544731
0.0059196274 -0.010506096 0.031654414 -0.028641615 0.00065168017 -0.012530098 0.018610682 0.015098503
-0.017460305 0.02332119 -0.02423609 -0.013609435 -0.018635731 0.00258506 -0.00891872 -0.01844042
0.018790726 -0.016814431 -0.010375448 0.016369468 -0.022531206 0.025482098 -0.0013780647 -0.015807716
-0.017127851 -0.028565878 -0.016925035 -0.01278726 0.007493192 0.03160808 -0.004850645 -0.007882525
-0.0059511224 0.0116680255 -0.02152696 0.0060042357 0.034670398 0.011455534 0.0046102772 -0.02468332
-0.022193786 -0.011371998 0.010288726 -0.009863767 -0.0018334185 -0.02724042 -0.0019087255 0.023152698
-0.017223163 -0.017691469 0.0035239926 -0.013415896 -0.009896768 -0.018142276 0.0037224505 0.0012073187
0.011604808 -0.017747603 -0.0020448929 -0.02288838 -0.021147475 0.03595717 -0.01468942 0.011538444
-0.0016768355 -0.020597871 -0.002736262 -0.014889835 0.020984896 -0.018146614 0.023194727 -0.0028697185

MatMul_1 f4 [32, 32]
00000000: 3875 89bd 4d8d c4bd 4aca 3b3e 49fb 153e
00000010: 7181 bdbc c349 25bd 3a93 073d f2fc 773d
00000020: 24da 02be 4131 203e 3407 803d be53 8a3d
00000030: bccd 803d f91b 5bbd acc1 acbd d595 c13c
00000040: 70e9 753e 8598 583d 6777 8b3d ec99 7dbd
00000050: 8b1d f8bc 3522 2a3d e987 d1bd 0e9b 1bbe
00000060: cf7f eebd 12c7 d8bd 6daa 793c 8b4c 14be
00000070: 862f c13d 5d39 febc f178 46ba 1f4a c53d
00000080: 3a09 623d d587 62bd 44c5 8abd 47ac af3c
00000090: 4485 0bbc 4926 15be 33f0 7a3d 1a13 fcbd
000000a0: 8ea1 183d 7bb5 aebd 3948 f03b bc02 82bd
000000b0: 5fb1 6ebc 1d37 a9bd e02b e0bd b22e 9fbc
000000c0: 6968 bfbc dfb5 f9bd 1a9c 97bc 23f7 053e
000000d0: 3327 9fbd 7163 f63c af3b fc3c d0a9 083b
000000e0: d0b7 ffbd a0f7 d1bd 48a8 823d 2d3d 25be
000000f0: 6750 823c 9d2c 073e 12ba 29be 7c7b aabd
00000100: 3498 fdbd 6c5e f93d 582d bdbd 57dc 4a3e
00000110: 9f95 2c3e cfe6 05be b850 163d e89a 2cbe
00000120: e96f cb3d b027 0fbd 5333 2d3e c5b6 003d
00000130: ffb9 debd f10c 39be 023b c1bb e1c9 253e
00000140: 256e e93d e40b 44bb af83 96bd b2f5 19bd
00000150: b3cb 23bc 37a8 9fbc be0c 183e 2bad cebd
00000160: 070d a5bd edde f63d 808e c03c 64a6 473e
00000170: 6e7e afbd 05a6 b63c 7b01 1dbe daf8 de3d
00000180: ccfe 1ebb a602 1fbe d4d1 cdbd 6594 153d
00000190: 885c b1bd 285b ec3d 4b8c 903d 3f80 d0bc
000001a0: 897d 3d3c dc11 8abd cff1 683d 3471 b93d
000001b0: a387 91bc 1f05 19be 9574 723d 4da6 0ebe
000001c0: 3d6f 72bc 86b3 313e 3979 bbbd 990b 443e
000001d0: 2bc0 c33d 8aef 41bc 059b 6cbd db0e 1c3d
000001e0: 2e59 a6bd 90b8 96bd 58f9 b03d c9bb 2c3d
000001f0: 7247 c8bd a0ed 383d f3f6 81bc f8fa e63c
00000200: 3c8f dfbd 8a6b 3d3e c3d2 543e eb1d 78bd
00000210: ed60 343d 813c 0f3d 8381 813b 396b b2bd
00000220: 06ce 0c3d 82e3 27be eb7c 24be 68fa 603d
00000230: ea27 78bd b122 34bd 740a 223d 4ed3 123c
00000240: eecd 6e3d 1f1c 6cbc d0b0 0c3e d215 44bd
00000250: ff40 283e 58ec 7f3c 2739 8a3d 9c6d 223e
00000260: be11 713b b7fd 613d 0431 a23d b794 853c
00000270: 78c1 0f3e 9ee3 073d b259 0bbe b0a8 c0bc
00000280: 8dd2 0f3e 0562 bc3c 165f f93d f9b3 483d
00000290: 819b 923d bbb1 01be c859 9dbc f48b 17be
000002a0: a82e 223e d7e2 973c 1460 1bbe c87f 273e
000002b0: 5d8b 4abd f3f7 263a 7bc8 c8bd 66a8 c73c
000002c0: 41c6 e13c 997c 22bb 26ff e0bd 0a52 1fbe
000002d0: e2d1 f33d e13e b93d c031 edbd 544d 20be
000002e0: e254 dfbd d2bc 23be 7bd0 14bd 7da8 a0bd
000002f0: c5f6 fb3c 550d 563d b7b6 c03d ca47 a9bb
00000300: 3854 d9bd e1aa 413e e30a 3c3e 72b7 2dbe
00000310: 5cc5 0ebe 49a2 3b3e 2f13 583d aa5d a43d
00000320: 1b93 973d fc01 06be 5d6f c03d 5079 ec3d
00000330: e4ce 1fbe 3dd8 ee3c 797c 47bd 9e93 743d
00000340: c930 aabd 7a20 1bbe a6fe 80bd 7b93 e8bc
00000350: 9c94 d2bc 51d5 cdbb a08d 0c3d 1b30 cabc
00000360: 783e 513d 0be0 163d efd2 103e 7a2d 4cbe
00000370: a436 b43d c5b5 05be 0466 f23d c740 9f3d
00000380: 8a3a 9dbd f31e 11bb 357e f63c f346 2e3a
00000390: c027 24bd 0b98 bc3d 0a6e d03d ab2e 913d
000003a0: cf53 053d d134 97bd 47a6 a23c a3fc 66bd
000003b0: eb16 973a ba77 7cbc 0a77 993d 67e6 dabd
000003c0: 4a3b 8abd abff 35bd 6fe9 373e ebc1 c4bd
000003d0: 6e0f 44be 0266 803d e2fc c93d d0e3 353d
000003e0: cab8 aa3d d231 f9bd 29db 69bd 6638 cb3d
000003f0: 4d6e debc 80ee fe3c 8bdc a2bd 5f7d 1dbe
-0.06711811 -0.095972635 0.18338886 0.14646639 -0.023133012 -0.040353548 0.03309939 0.06054396
-0.12778527 0.15643789 0.06251374 0.06754254 0.06289241 -0.053493474 -0.084353775 0.023631016
0.2401483 0.05287983 0.068098836 -0.06191437 -0.030287525 0.04153653 -0.10231001 -0.15195867
-0.11645471 -0.10584845 0.015238387 -0.14482324 0.094328925 -0.031033212 -0.0007571122 0.09633278
0.05518458 -0.05530532 -0.06775907 0.021444453 -0.00851566 -0.14565386 0.061264228 -0.12308331
0.037263446 -0.085307084 0.0073328284 -0.06348178 -0.014568656 -0.08262465 -0.109458685 -0.019431446
-0.023365216 -0.12192892 -0.018507052 0.13082556 -0.077711485 0.030076714 0.030790178 0.002085317
-0.12486231 -0.10252309 0.06379753 -0.16136618 0.01590748 0.13200612 -0.16574886 -0.08324334
-0.12382546 0.12176213 -0.09237164 0.19810615 0.16853951 -0.13076328 0.036698073 -0.16855967
0.099334545 -0.03494996 0.1691411 0.031424303 -0.1087532 -0.18071343 -0.005896927 0.16190292
0.113979615 -0.0029914314 -0.073493354 -0.03758783 -0.009997296 -0.01948939 0.14848611 -0.10091623
-0.080591254 0.120542385 0.02350545 0.19497067 -0.085690364 0.022295961 -0.15332596 0.108873084
-0.0024260757 -0.15528354 -0.10049787 0.036518473 -0.08660227 0.11540824 0.07058009 -0.025451778
0.011565574 -0.06741688 0.05687123 0.09054795 -0.017764872 -0.1494336 0.059193213 -0.13930626
-0.014797029 0.17353639 -0.09153981 0.19145049 0.095581375 -0.011836896 -0.057765026 0.038100105
-0.081224784 -0.07359421 0.086413085 0.042171273 -0.09779252 0.04514849 -0.015864825 0.028195843
-0.10915992 0.18498054 0.20783524 -0.060575407 0.044037748 0.03496981 0.0039522066 -0.08711857
0.034376167 -0.16395381 -0.16063277 0.054926306 -0.06058494 -0.043978397 0.03956075 0.008961512
0.05830186 -0.0144110015 0.13739324 -0.047872372 0.16431044 0.015620314 0.06749182 0.15862125
0.0036784257 0.055173602 0.07919505 0.016306264 0.14038646 0.033176057 -0.13608435 -0.023517936
0.14045162 0.022995958 0.12176339 0.04899976 0.07158566 -0.12665455 -0.01920785 -0.14799482
0.1583811 0.018540783 -0.1517337 0.16357338 -0.049449313 0.0006369345 -0.098038636 0.02437229
0.027560355 -0.0024793504 -0.10986166 -0.15558639 0.11905266 0.09045196 -0.11581755 -0.15654498
-0.10904862 -0.15989998 -0.036331635 -0.078446366 0.030757317 0.05225881 0.0940985 -0.0051660286
-0.106117666 0.18912841 0.18363528 -0.1696451 -0.13942474 0.18323626 0.05275267 0.080256775
0.07401105 -0.13086694 0.09396241 0.11546576 -0.15606266 0.029155845 -0.04870269 0.05971109
-0.08310086 -0.15149108 -0.0629857 -0.028390637 -0.025705628 -0.006281533 0.03431475 -0.024681142
0.051084965 0.036834758 0.14142965 -0.19939223 0.08799484 -0.13057621 0.11835864 0.07776027
-0.07677181 -0.0022143691 0.030089477 0.00066481455 -0.04007697 0.092086874 0.10177238 0.07088979
0.03255063 -0.07383121 0.019854678 -0.056393277 0.0011527216 -0.015409404 0.07493408 -0.10688477
-0.0674959 -0.044433277 0.17960142 -0.096072994 -0.19146511 0.062694564 0.09862687 0.044406712
0.08336027 -0.121677056 -0.057093773 0.099228665 -0.027152205 0.031119585 -0.079522215 -0.15379857

MatMul_2 f4 [1, 32]
00000000: 8264 193e a714 60bd 07b8 dc3d 98af d23d
00000010: 654c aebe fb0f cabe bf18 b0be c770 df3d
00000020: e196 1d3e d272 d0bb d8d5 913e 09ae ecbd
00000030: e615 523e 893c eebd 3e64 d73c 320d b4be
00000040: f27d b8be 8375 c2be 9993 f03d c45d 9dbe
00000050: 6e12 d83d d0e6 aabe 6a1f d4bc 59bf 09bd
00000060: a05d 533d aefd 233e 5d1a 353e fdd4 393d
00000070: 90d2 afbe d67b 753d fb51 f13d 54c5 033c
0.14979747 -0.054707196 0.10777288 0.10287398 -0.3404266 -0.39465317 -0.3439388 0.109101824
0.15389587 -0.006361344 0.28483462 -0.11556632 0.20516166 -0.1163264 0.026292916 -0.35166317
-0.3603359 -0.3798028 0.11746902 -0.307356 0.1055039 -0.3337922 -0.025893886 -0.03362975
0.05160296 0.1601474 0.17685838 0.045369137 -0.34340334 0.059932552 0.11783215 0.008042652
